runs/firn_tight_20251127-100841/model.pt (torch, 536603 bytes, 12 tensors)

net.0.weight f8 [128, 2]
00000000: cba4 e28e 821a d2bf e482 8f9d 5a3c 92bf
00000010: 2305 1932 fd4f db3f 7d41 c7cc 413a 88bf
00000020: 6739 3333 59fd 9c3f 886a b494 f84c c43f
00000030: e764 af1d 5075 d2bf a428 fc96 52fb bd3f
00000040: 22d8 81fc 8463 c6bf 6c2f bfa2 5869 c0bf
00000050: 5a45 770b 6704 d8bf 4ed2 558c 9128 a63f
00000060: 79e0 380e 9f1a c53f 2f75 52cc 9fad b53f
00000070: a431 2d1e 613f d33f d936 99b0 7f0d 9d3f
00000080: a329 12a8 f2f5 d53f 4d4b acf3 a9e5 863f
00000090: 4f9e 4f46 a6f5 b4bf daaa d04b b0d0 97bf
000000a0: b1d6 6d99 96d2 b8bf 8a12 5bfc 5515 c7bf
000000b0: 31cc 4494 5051 c53f 3dfc f37d 23af a7bf
000000c0: 2076 0d60 23f3 c83f a164 1944 f1a5 b9bf
000000d0: 4309 a497 32a5 c2bf 5ffe a4c9 5447 bb3f
000000e0: 8d48 1eb5 10c2 883f 6c1c 621a 504a 4ebf
000000f0: 2f16 1f71 0040 a0bf 19b2 7df0 7b6e b4bf
00000100: 4a8c dc0e 7849 933f e424 fb0d 25fb b93f
00000110: c44a 0ef1 2e4d e5bf df8d bf74 ebe4 a1bf
00000120: aadb b03f 0250 da3f 656c 3a2d af36 81bf
00000130: 2d16 0578 4208 c9bf 8ece 74e7 0ff4 c73f
00000140: e62b f17e 1b74 cd3f 7235 5867 e10c c3bf
00000150: c0b2 c6f0 3bea b03f 1fe7 3a27 330e c3bf
00000160: ce1e 3ea2 c056 cd3f e225 7471 9319 9a3f
00000170: 8dd2 4f24 44ee cb3f f3b8 5fac 7349 b63f
00000180: af85 d37b 16da c5bf adda ae80 b9f2 c33f
00000190: 3223 3889 e3ac c7bf 7c0e f455 ae54 c2bf
000001a0: 0c0c 8967 4b15 c33f cea2 9f1b 1850 b5bf
000001b0: c3ef 81c1 d5cb d23f 3eeb a72d 4c00 953f
000001c0: 8a0f e43e c66b b33f 854d 147a a027 c53f
000001d0: d1d3 c8e8 7df1 a13f 1459 5913 a51c c3bf
000001e0: 033c 1225 a778 c8bf 1c47 a6c4 e602 c1bf
000001f0: ad67 7aa9 6e01 be3f 20ac ef44 578c 833f
00000200: 3925 12aa f9fc d0bf 8795 9cfb eaf0 c2bf
00000210: 275e 7aa2 ad7e aa3f 7786 aafe 1906 c6bf
00000220: fb5c f8fa a67c b73f 9336 cfb4 f711 983f
00000230: b59f 38bc 9684 b2bf 6444 92bc 9ca0 c5bf
00000240: d839 d6e9 8757 a83f 750f 65f9 5235 bfbf
00000250: 0554 5c6f aae5 a2bf e5c7 0bcb 94d5 b53f
00000260: a87c fb16 18f8 b1bf 37e7 7170 0f8e a7bf
00000270: 6aae a0cb ad48 cb3f fc09 2164 08c8 bbbf
00000280: 669e 2fde 1c5c 99bf a2c7 83ed 3b36 a23f
00000290: 12dc b447 99af cf3f f9ca 9910 fb2d b3bf
000002a0: 9f63 b825 d383 d5bf d511 4b3d 8af7 ab3f
000002b0: 7ada 9e62 7a2e b5bf 31e8 7332 da40 a9bf
000002c0: 458d 9196 7356 cdbf 5dbb 3919 222c bdbf
000002d0: c52a 7b18 86d8 ccbf eede 8ec5 c6bc a0bf
000002e0: 103e 487d 17fb ca3f 8f72 4854 a155 c4bf
000002f0: e478 03bb cfb8 b53f 3029 9db3 4cb0 c9bf
00000300: 6344 d030 2364 f13f 38a4 c6bf ef60 403f
00000310: 16bf d986 47b2 d1bf 7ea7 857e fe6d 84bf
00000320: 8863 c42a 44ad aebf 3778 9e91 eb8e c6bf
00000330: 33fa 7f4e 85e1 cdbf 54b1 88f7 b5da b9bf
00000340: 2922 74dc 2601 cd3f 30f6 46e6 3ca8 a6bf
00000350: 76f4 05d2 fccc cdbf 58eb 3251 b4ce 9e3f
00000360: 0396 ba5c 31f5 abbf aa7c 41cf e365 c73f
00000370: 1e9b ecc5 ac6c bc3f 3247 8c21 ea46 c03f
00000380: 08ca 880d 3e54 c73f 8e97 2c24 4302 9cbf
00000390: 735c 11b4 5e17 bfbf d4f9 4b74 99c7 c13f
000003a0: 2165 3575 b646 babf 2e5c ae6e 8f0b b3bf
000003b0: 99f5 3243 6209 d13f b9fa b7a0 ce62 b23f
000003c0: f553 1724 cbf0 bebf 6661 1990 67a1 c1bf
000003d0: 23e9 57a1 ab17 ce3f 66e8 7286 0207 8b3f
000003e0: dd11 9ee1 6466 c23f a49d 6a90 4d11 84bf
000003f0: a9c2 5b7a 5f1a d1bf 0edf 997c 568c b5bf
00000400: b6c9 910b 5690 73bf 39b3 f704 b5d3 af3f
00000410: a990 e13b 493f af3f b73d ef4a 7d30 c0bf
00000420: cec7 b1bc 1146 cdbf 7368 7f85 cdbb bf3f
00000430: 0669 bb50 7945 9b3f 81a6 6543 20ea c4bf
00000440: fef6 a09f 4feb cb3f 4d62 cfc7 2654 8cbf
00000450: 2b5f 16a3 276c c03f 6274 f98a 7cec a63f
00000460: 8336 78db b860 c03f 66e1 4cd5 bcce c2bf
00000470: ed4e dd21 887d b1bf 668c f842 3e43 903f
00000480: c092 cbdd 40a6 c73f 0d26 3ff7 702c c73f
00000490: 5e99 c55e 3d89 c83f c4bf 10c8 ef71 c6bf
000004a0: c569 338b 0ca0 c7bf 5c20 a9ab cccf 4b3f
000004b0: c4c4 e098 d107 c4bf f986 5bf2 debd b4bf
000004c0: 34a0 291b 13e7 ac3f 50f7 e660 2461 a1bf
000004d0: 7103 aec7 91bd c63f 29a9 5e80 7873 c5bf
000004e0: f0c3 335a c3ea 793f be41 ff04 ce44 c0bf
000004f0: aa28 d805 94cf 90bf 4d8a 3df3 f105 ad3f
00000500: 9e1a 19c2 18f6 ad3f daf8 4897 19e4 c7bf
00000510: b369 bac2 5fd6 cbbf b704 6802 ce53 bbbf
00000520: 7c38 d23b 7339 b1bf 5024 9441 cf02 c53f
00000530: 1753 f986 1034 b8bf 5bdf e97e 0d16 c73f
00000540: 2b77 78c8 2761 b9bf 2fcc a6ba 8a81 b8bf
00000550: 230f fba9 ba7a 9dbf e3dd 7dd5 c2b5 c53f
00000560: 147a 258f db92 b23f ee99 ac2d abd7 c33f
00000570: 36bf c837 404b b3bf 29ba a713 5786 c63f
00000580: 65ee 1cf1 256c cdbf 85f2 2d27 189c 903f
00000590: 886d dd05 d994 c73f 7d96 5c64 c80b bebf
000005a0: eb0c 30f4 ca0f ca3f 4e3b 9972 2a00 9fbf
000005b0: b77c eadf a53d cdbf 89e5 d1c4 4fe8 bb3f
000005c0: c1a5 68d0 c56d cfbf 3190 3cdc 3b53 c9bf
000005d0: 5089 1591 1b8a c33f 30e7 0259 d090 c4bf
000005e0: 5935 5c72 2062 d0bf e243 e8a5 f659 bb3f
000005f0: 0984 451f 8736 cb3f bba6 62bc 3e50 bbbf
00000600: 5eaa 8b02 286e c1bf 0e51 7cc0 d707 2f3f
00000610: 31b3 f220 83f9 a53f 3083 aa14 6852 c73f
00000620: 4fef c4f9 a159 dbbf e1a0 e37b dc15 a7bf
00000630: 2b18 16aa a6a8 b6bf 0eb0 0ccc 7bea a4bf
00000640: ecdf 90fe 60da b63f a28a 6117 85e7 a9bf
00000650: 5388 3161 a4df a3bf bd07 944d 4508 523f
00000660: 33a9 4ef8 a99f c93f 7b50 7376 23e2 be3f
00000670: e4f2 e92d a4c3 c8bf bb18 c06c edb2 c0bf
00000680: 2d0e 7b3c 5575 c33f 5416 8416 8381 b6bf
00000690: 0347 3d35 758f c83f 0cb7 94b3 a5b7 b8bf
000006a0: 56cc 0fb0 92e4 e2bf f51d b040 d8db 83bf
000006b0: 1098 f91c 84a1 b93f f2e9 ceba 1b73 bf3f
000006c0: b3fe a645 8f5f a43f 9470 ad56 416c c93f
000006d0: 5801 641c 3593 d1bf fd79 ccf9 44f2 b83f
000006e0: 0137 ec38 327a c03f 9a73 453a f84d b8bf
000006f0: 31af 3e54 c3f7 a23f 2af2 2700 c3df c2bf
00000700: 1450 58ad 105b 9bbf 1d47 8131 92e9 a8bf
00000710: a4b5 3142 42fc c6bf 022e e8fc 656a ad3f
00000720: a723 ef95 4a8a c83f 8052 960f cc85 c4bf
00000730: 061f 485b 9af1 c0bf f041 ced8 9e01 c93f
00000740: 9891 8062 6ddb dc3f 6870 8cfb 264c 73bf
00000750: 99fa 2ecb ad7c b73f 07c3 7c22 2d0a c43f
00000760: 977b cc55 1eb9 cbbf add2 cddf 9406 c4bf
00000770: bdab 90cc 287d d2bf 8b46 3e65 cc30 823f
00000780: f17c 6680 0592 a13f 8f0f 7dc2 1610 b1bf
00000790: c2b0 7ff5 1263 ab3f 241d e674 fd93 c13f
000007a0: ec84 a7e6 330a d03f 6f1c d057 ea44 a1bf
000007b0: 1c66 3d3f 2512 d0bf ab4f 0108 7203 c23f
000007c0: fb23 597b f1f5 abbf 7388 a078 f011 c9bf
000007d0: 6dd1 ef72 d814 c43f 49f9 f2ec a9ac bbbf
000007e0: d6da ffa8 adbc d73f 4e76 f41e 3e3c b63f
000007f0: 2465 4428 14c6 bcbf 7af5 f916 a5f2 b83f
-0.28286804155011386 -0.0178083571116784 0.4267571439014139 -0.011829866468276102 0.028310197591787125 0.15859896908735416 -0.288410214414013 0.11711612878949268
-0.17491209344342545 -0.12821491190549794 -0.3752687084171008 0.04327826345516837 0.16487491793100498 0.08468054521877798 0.30074336955001457 0.02837180629130995
0.3431364671056604 0.01118023657685332 -0.08187331406190278 -0.023257021548640157 -0.09696332212282745 -0.18033861944254098 0.16654402961430173 -0.04625807678711922
0.19491998853747905 -0.10018833077028201 -0.145666431468337 0.10655717776261885 0.012088900115291313 -0.0009243861320705877 -0.03173829441906794 -0.07981085416185642
0.01883494940478795 0.10148841468175679 -0.6656717975732467 -0.0349496440901722 0.4111333486538863 -0.00840508324409068 -0.19556456432671734 0.18713568498207106
0.23010581682532844 -0.14883058115121234 0.06607412937473622 -0.1488708440354509 0.22920997545246852 0.025488189506210797 0.218208806734442 0.08705828626964145
-0.1707180122967151 0.1558448675475196 -0.18496364784393787 -0.1432092590040276 0.14908735804974105 -0.08325339006809004 0.293691100094062 0.020508947645775814
0.07586325679227293 0.16527181588081077 0.03504556147201011 -0.14931167073036333 -0.19118203458899083 -0.1329010448649165 0.11720935475969325 0.009545022765413747
-0.26544038399204656 -0.1479772308895628 0.05174772842763913 -0.17206120428913937 0.09174579264832865 0.023506040964824292 -0.07233564467662641 -0.16896399695955033
0.04754280785992976 -0.12190741146792823 -0.036908460706548886 0.08529024083307453 -0.07019186554997481 -0.04600570914858653 0.2131554836536112 -0.10852100796277137
-0.0247654448138789 0.03557002329206617 0.24754634858410945 -0.07492036013881521 -0.3361709469186795 0.05462295530518061 -0.08274044902541702 -0.04932290902975501
-0.22920079090099868 -0.1139546691499453 -0.2253577823197103 -0.03269025003049629 0.2107877122621038 -0.15886322608357203 0.08485124889145684 -0.20069273729525028
1.0869476229456942 0.0004998369836829502 -0.2765063111209981 -0.00997542213072555 -0.059915666790579414 -0.1762365780859356 -0.2334448464680051 -0.1009935120898196
0.22659765018785663 -0.04425230322838691 -0.23281822447816908 0.030085389572131888 -0.05460504776901234 0.1827969324103596 0.11103324730048 0.12716414106449175
0.18225837384086696 -0.02735237987794608 -0.1214503469103521 0.13890379122308494 -0.10264149056947193 -0.07439514591384075 0.26619774401100355 0.07182017730517999
-0.12086171752100923 -0.1377381757363409 0.23509736421676405 0.013196964004567668 0.14374981895902197 -0.009798627824536173 -0.2672346777826911 -0.08417263547914564
-0.00477632151988632 0.06216207204474817 0.06102970939608216 -0.1264797798053061 -0.2287008448943752 0.12395939358921897 0.02663220935105761 -0.16339495936272289
0.21811862272618748 -0.013832381222458024 0.1283006235432763 0.044772998776104314 0.12795172420776532 -0.1469341317658845 -0.06832171274919192 0.015881512487009884
0.18476115064472332 0.18104374001113435 0.19168822410137926 -0.1753520705110515 -0.18457180783191354 0.0008487462394635259 -0.15648860897775851 -0.08102219979221194
0.056450459542987025 -0.03394426043403931 0.17766020059573465 -0.16758638637595283 0.006327403159262154 -0.12709975475310203 -0.0164168480460282 0.05668598264926015
0.058518193906413205 -0.1866485584923286 -0.21747967727863013 -0.10674750860927672 -0.0672828694389142 0.16414824201663913 -0.09454444213163203 0.18036049553824793
-0.0991387237959002 -0.09572665268824275 -0.028788487076567237 0.16960940765760232 0.07255336994919787 0.15501918535410603 -0.07536698686521678 0.17597473582959935
-0.22986292145820922 0.016220452681852144 0.18422997270941388 -0.1173672909759151 0.20360695765712164 -0.03027407001928433 -0.22844384606739762 0.10901354365514328
-0.24553749729356691 -0.1978525948881056 0.15265221199212897 -0.1606693682313618 -0.2559891812132569 0.10684148359747739 0.2126015570347877 -0.10669319247485991
-0.13617420315070466 0.0002367449635519787 0.0429192521781715 0.18220234879574937 -0.42734574691325106 -0.045088663218679555 -0.08851091053483688 -0.04085146776046154
0.08926969733226969 -0.05059448156750547 -0.03881562887615133 0.0011006047046184652 0.20018505691889174 0.1206381000695859 -0.19347049943816963 -0.13046043214871425
0.15201821759375048 -0.08791369723993486 0.1918779859502636 -0.09655223497676618 -0.5904019774155909 -0.00969666430866221 0.10012078959843529 0.1228501635622832
0.03979156232116789 0.1986161874036766 -0.27460983059429145 0.0974467382297703 0.12872913150243195 -0.09493972227705996 0.03704653170947692 -0.14745366580599867
-0.02671457345975632 -0.048657005827989354 -0.17957332832467643 0.05745238029711787 0.19172031708720036 -0.16033316384404728 -0.13237313706508064 0.1953619536038924
0.4508927785812147 -0.004711296344591977 0.09174619875464386 0.156560556258704 -0.21658686818497294 -0.15645085266046035 -0.2888891217905288 0.00888213809938356
0.0343171805609418 -0.06665174721007204 0.053490250080217475 0.1373287983699153 0.25062272572365774 -0.03372890779433468 -0.2511075131966167 0.14073014632105915
-0.0546107733794727 -0.1958599652289795 0.15688615429065625 -0.1081033900727323 0.37089101318217155 0.0868567300389824 -0.11239744170270122 0.09745246706912339

net.0.bias f8 [128]
00000000: b426 4014 7852 93bf 173c 928b a3df 953f
00000010: 0983 db83 64f1 9e3f 4c14 daeb 6d6e c43f
00000020: 757f 9a95 02cf 7dbf fae1 b143 817f b03f
00000030: bcbc d950 aa9a 903f 0ae2 f0de d8e2 993f
00000040: 011d 4968 8fcb 973f a6ea c6cf 8903 a13f
00000050: f514 f383 c864 783f e55c 752f 225c 953f
00000060: 0ccc a551 8b51 aabf 2e9f 1306 a45f 843f
00000070: c2fb 2796 569d 8ebf f6e7 3222 9c50 503f
00000080: afb9 61be 624c 693f 08f6 cdf4 4e01 94bf
00000090: 400d cca2 3113 70bf 04f5 774f b931 a1bf
000000a0: a794 bd4c da79 943f d6fe 264d e060 b6bf
000000b0: 5cbd 5566 8a2c 9d3f 7778 9189 60d1 28bf
000000c0: 0227 42af 7873 be3f e834 a19c 13d5 91bf
000000d0: d999 95ba 8a0b b5bf 27a2 5bdb 6ed7 9a3f
000000e0: e643 b735 e685 733f d924 f7cb f550 9ebf
000000f0: 4ca6 4b75 2dc1 91bf 64f0 4945 6155 5a3f
00000100: f5a4 914b 54ce 97bf c63a 417c 5698 953f
00000110: 5028 786d bcd1 863f 252a 5993 8c46 91bf
00000120: eca2 39c2 b6ec a6bf ebcb 8d72 545e af3f
00000130: f4a2 6e65 026b 9fbf fcae 9531 dfdc 9b3f
00000140: 1676 d203 74c3 92bf f9fd 1676 21b3 82bf
00000150: 96f2 3465 1cb3 b23f 5bba b0bf d7e0 a33f
00000160: acc0 11e2 8171 86bf bc87 ebcb ed21 87bf
00000170: e4c5 92e6 2f86 9fbf 13bb b502 0762 b1bf
00000180: 803b 1589 1435 bfbf 0ec7 b90e 68fe 95bf
00000190: bd07 3653 9499 8cbf c39e e304 4e6c a0bf
000001a0: 8bd0 d684 f29c 8f3f 9b65 9cff 603e 82bf
000001b0: 5586 94b6 fdb0 6cbf 37a5 bc40 7b8b 413f
000001c0: 44c7 fb8b 7cab 723f 4546 819d 13d2 a6bf
000001d0: b523 cd35 3ffb 96bf d8e7 c52b 60fb 943f
000001e0: 4732 234e 2187 6ebf 9196 a2dd 3ee0 823f
000001f0: 3533 cfd8 5c88 973f 45a6 7094 a5e5 a0bf
00000200: 0c64 cceb 8af2 983f dc54 78af 506e 9a3f
00000210: 0947 03fa 2c96 a0bf 6652 f223 c9b2 a3bf
00000220: 2104 9100 ea6a 563f 94c6 25a0 35b2 86bf
00000230: 30bc 45d3 5e7e 69bf 7d50 195c 51ba 8dbf
00000240: 6ce3 4aae d3e3 963f e31d 7201 9ad4 b3bf
00000250: fa8e b25a a6be 983f b8a4 4748 87a9 9cbf
00000260: 09e0 145a 4768 883f 7c70 94fb bc02 9dbf
00000270: 737a 8c9f 6aa5 91bf 950f b58a 964b a1bf
00000280: a025 5969 390f b3bf 29f1 bdfd 98b4 833f
00000290: 00cf 3837 0563 92bf 153f e93f 0cd7 a43f
000002a0: 8f67 458a 4680 823f ef9c dc3b 8111 b6bf
000002b0: 7cf4 1cb6 05a5 acbf 7112 2d31 4500 ba3f
000002c0: c434 cae7 097a 503f 1f15 1f65 9607 4f3f
000002d0: c1e5 c995 4a06 ac3f e162 eeb0 aa55 9d3f
000002e0: 76f3 3511 af8b 97bf d842 0db5 7703 a4bf
000002f0: c5c8 2c1c d8c2 12bf 34ad 1e85 7746 70bf
00000300: f3ab 09cd 1371 a23f 271d 709c 50f8 90bf
00000310: 78fe bfe9 1d8a 953f 0070 924b 174f 70bf
00000320: 560d 15ba 8ba0 a33f 1fbb 2c18 b526 7bbf
00000330: 6b77 4460 b2c2 893f 7b7f e371 1d81 80bf
00000340: 35f4 39a2 af1e 973f b449 a7b3 8903 833f
00000350: 3aac 9989 9a10 653f cdd5 7734 16a4 50bf
00000360: 55ad 6771 6de0 babf 1f64 801f 8ddc ad3f
00000370: c4c8 8ec8 06a5 99bf 8cf2 18ad 908c b8bf
00000380: 68cd 100e a25a 94bf 31c9 b096 ee92 16bf
00000390: 15ca a10b 8e5a a3bf cab5 e121 c43f bf3f
000003a0: 82c8 2f5b 95fe 93bf 3d9e 9b4d f903 a73f
000003b0: 3422 1649 600b b33f a64c f6b9 fae9 883f
000003c0: 8dde dcd1 7b13 a23f 1a7e 4be3 5884 a53f
000003d0: 0cec 6301 2857 a73f f9ab 8f5b e2ea 78bf
000003e0: 1eea a4e6 b920 7ebf 2e46 7b37 65f4 903f
000003f0: b01a cc81 b28a b13f 14f5 a896 94e0 a73f
-0.01886928199386402 0.021360927003623766 0.030217714832249807 0.15962003723339746 -0.007277498336094247 0.06444557097155004 0.016215001282429795 0.02527941570972029
0.02323745798119337 0.03323012029018928 0.0059554894098188165 0.02085927405036338 -0.05140338298487998 0.009948045192188806 -0.014948536355403056 0.0009957813970644636
0.0030881813609575297 -0.01953624123733813 -0.00392455472024561 -0.03358248801303357 0.019996081289168768 -0.0874157131538554 0.02849022149660861 -0.0001893453925587184
0.11894945410508842 -0.017414385256690063 -0.08220736556322751 0.026212436808153463 0.004766368157519607 -0.029605713438091683 -0.017338476452016402 0.001607270232084645
-0.023248021232949296 0.021088935216819114 0.011142227259387877 -0.016870686047960732 -0.044774733742832 0.06126655481684636 -0.03068164581387385 0.027209746743593208
-0.018323719723971697 -0.009130727211299027 0.07304551573629178 0.03882478919000639 -0.010958685599888739 -0.011295182977338551 -0.03078532070930419 -0.06790202919158288
-0.12190368983031696 -0.02147829618338109 -0.01396480444850911 -0.032076299759692194 0.01543607204335042 -0.008908040810228715 -0.003502364667512118 0.0005354263134666252
0.004558073531130639 -0.044571507431680625 -0.022442805918476433 0.020490172073074436 -0.003726544427172382 0.009216776980177673 0.022981119854921423 -0.03300206601154491
0.024362726823799405 0.02581144400581513 -0.03239574958719344 -0.03847340167809392 0.0013682637384280288 -0.011082095098319734 -0.003112015920286669 -0.014515529273161793
0.02235346556946942 -0.07746279273316463 0.024164771352515914 -0.02799044970189321 0.011917645870752851 -0.028330757956709793 -0.01723257635887383 -0.033779816085853266
-0.07445105382898598 0.009621806377019997 -0.017955857749440973 0.040703184892320866 0.009033728689860769 -0.08620460235089288 -0.05594652031002398 0.10156662417018382
0.0010056587918001883 0.0009469494200337359 0.054735499176739484 0.028647105263732157 -0.022993789124928075 -0.03908895573716159 -7.156795531385308e-05 -0.003973452448842441
0.03601896169569576 -0.016572246120657354 0.02103468646237025 -0.003981677052390609 0.03833424231063513 -0.006628711128356084 0.012578385889863338 -0.00805876735506649
0.02257799556399594 0.0092840917540443 0.0025713938055580672 -0.0010156838269471558 -0.104986992060437 0.05832329759159215 -0.02504358862979285 -0.09589485383998858
-0.019876987560747322 -8.61127970644179e-05 -0.037800253791733386 0.12206674411000687 -0.019525846186248426 0.044952192996614994 0.07439233574235332 0.012165030288804179
0.035304898612989445 0.042025354143103225 0.04558682457896887 -0.006083378038037595 -0.007355428863145023 0.016557294379543723 0.06852260273817978 0.046635287657844554

net.2.weight f8 [128, 128]
00000000: bab2 7bf6 93eb ba3f c7f9 3329 f407 adbf
00000010: ce93 8c84 4c59 c1bf 10cf c9da aa10 bebf
00000020: 817f a072 c704 b3bf 3a0d 8dbc 4d09 c2bf
00000030: d44b fefc 5f67 613f 56be e87b 34df a73f
00000040: d62b a0a8 419b c43f cd66 fb24 58ff a33f
00000050: 6f8f 9f81 5de7 bb3f 3b31 4954 341f 9abf
00000060: 080e 4f6c c9c6 adbf b7ad 482c ad13 c23f
00000070: e356 4d61 0ce9 b0bf d052 f3f9 5b7c c23f
00000080: f795 47a2 e68c bcbf d705 f3e7 eda7 b7bf
00000090: 3e56 478e e2e3 b5bf 07a4 f9ed caf1 463f
000000a0: b053 3b6f a425 c0bf cc06 5bff db18 b1bf
000000b0: 9790 bef9 67b6 bdbf f46e b6a3 4794 c33f
000000c0: d202 e608 da7e c2bf e0b5 91b9 84be b4bf
000000d0: 2335 48f2 92b5 b53f aa01 3d68 88a1 bb3f
000000e0: d829 1355 b4f5 acbf 5f1b 268b 5f64 9dbf
000000f0: 2d0c 85d6 fcff a8bf 8327 b16a 5545 b43f
00000100: a439 4e00 ef9e a8bf 0ca3 3be9 c58e a5bf
00000110: 2f01 dea9 178e b6bf ab60 183e 1645 c0bf
00000120: d4ef cdd8 906c b43f 0120 da77 4b7c bb3f
00000130: 3376 dd95 d087 c4bf 8581 10bf ece1 3cbf
00000140: f29d 319b a178 c03f d644 c0fb 5e1d 913f
00000150: 8d26 4fa9 63cc b63f 9684 c7c7 935b 813f
00000160: a565 4251 d8e3 b43f e6ba 32b5 df18 a8bf
00000170: 3ba3 c0fb bc2f a33f 9ec3 7f71 a695 a03f
00000180: e104 4bcb 0b4c 663f 0b49 a21c 1c66 c0bf
00000190: 7efa dde1 8241 bb3f 48f8 9d6c 853e a43f
000001a0: e3c1 ae1c a775 c0bf 7467 823d 647c bdbf
000001b0: 9983 f245 a1ba c13f dd99 3a93 72dd c23f
000001c0: b4d1 b0a5 5995 c3bf 6a28 7e3b 3445 b8bf
000001d0: ac1d 6ccd c8b9 953f c474 40a9 84e8 b3bf
000001e0: cf9d 659f e221 99bf 13b9 632d 8833 a63f
000001f0: 8f9b 64b1 8248 c13f 5d20 5248 06b7 a5bf
00000200: 493b 60ea b6ab b53f e189 06ca 3e0f 803f
00000210: 8ea4 79dd 5358 c33f 8453 82b2 ff66 903f
00000220: b3b0 d3e4 aeae c1bf 1312 4f25 4475 b53f
00000230: bf62 5347 d90a c3bf 8c60 7d72 da23 71bf
00000240: dd0d 39d9 5162 b83f 8b59 18ec 217f b03f
00000250: e8ba f495 2625 b93f b30d d8e4 e752 a33f
00000260: d6fb 9279 9c73 c0bf e1c7 124b 4efe b63f
00000270: 1927 8084 6753 b8bf 47a3 8bf9 b1fa b1bf
00000280: 7307 cd7b aff9 b43f c685 d613 6dbd c4bf
00000290: 475d b06d 566f a8bf 76b9 6e85 d78c 95bf
000002a0: 3120 1bed 8a5e c13f c4ab 90d8 0f43 afbf
000002b0: 011a a6aa f778 adbf 8ba4 95ca 115c a3bf
000002c0: fcf8 d12b bba4 b5bf 633f 9ba1 2a57 2f3f
000002d0: 4d6f 2a48 4a66 bcbf c981 3141 a912 a7bf
000002e0: 68d8 2fc3 bc61 c13f 39a3 92f7 89b5 ad3f
000002f0: a0f9 76c7 1eb0 9f3f fa64 c6a3 65c7 b9bf
00000300: e201 db30 0dd8 c03f 59c5 3d22 3a96 973f
00000310: 8660 95bc 52aa 963f 3ce0 c21e a2e0 ae3f
00000320: 9e8a f025 6898 b6bf 58d1 8213 e9fc a9bf
00000330: 9b10 5124 43cc ad3f 140c 4b5f f636 c03f
00000340: 7230 2c87 aafe bc3f 408a fbd1 44b8 9a3f
00000350: e338 c24b 174d 8abf 3f57 153a 7594 a6bf
00000360: c64c e9a0 a6db a73f 3d6d 9d12 ff56 c0bf
00000370: 606e 5762 2ef7 ad3f 615b 4f8c f446 b93f
00000380: 1c9d fcc4 2b79 abbf 3d6f b075 7899 a53f
00000390: 27de 0a63 c5a9 903f da9f 28de 42b8 bebf
000003a0: 3e33 b819 32c5 ba3f 5c12 fe03 cd26 adbf
000003b0: 0ba3 9215 8fd6 b03f cd52 5b4f 248f bd3f
000003c0: 31e2 7104 3b06 b13f 554c 5ce0 c41c bbbf
000003d0: eea1 f938 c597 69bf aef6 9d0f cb1d b23f
000003e0: a15e a968 37f5 abbf 9308 e483 2dcf 903f
000003f0: 1a62 b134 abab c33f c19c 98b0 290d b6bf
00000400: 96f1 f3e6 0cd2 a7bf 42ad 4cdd 858f 61bf
00000410: 05eb a936 fa1c bbbf d776 f971 63c5 923f
00000420: e2bc 139b 17dd c13f 21f2 a531 73e4 b5bf
00000430: 6d55 213f 324f bcbf f13d b2b4 4cf2 b13f
00000440: 8a6d 1289 21ec c4bf 7d51 dae9 3ec6 8ebf
00000450: 159b 9533 a374 9fbf 824a 2691 de22 c03f
00000460: 658b 57d5 fbfa 83bf e3ba cd82 684b a63f
00000470: 034b 0b68 5a33 b43f c62f 8d72 100b ac3f
00000480: a113 308a ca67 8d3f 37aa 901e 4238 743f
00000490: 97f2 3c74 b552 cabf 2996 46cf 717f b53f
000004a0: 9138 4e55 cd20 bebf 2969 4fc3 cd85 bebf
000004b0: a152 6aa2 7c84 ab3f 8508 3461 64c2 9cbf
000004c0: d329 e5f2 aaad 9dbf a073 55b1 91ff c0bf
000004d0: 4b3f 1b30 d1ed b0bf 9300 0a2b 8497 9dbf
000004e0: fc6b e9a6 3e21 aebf ea73 9821 a9aa a13f
000004f0: 71d2 2430 c708 c33f b6a1 6eca 502c aabf
00000500: 7717 143e 264c c43f 2cd4 52c6 153e abbf
00000510: 12a9 b3a1 fe39 b23f cc0c 8f44 2171 acbf
00000520: 4873 3226 a70f 58bf bf91 bdeb 49ae 673f
00000530: 63fe b0ad e24e bb3f 2ee7 6c99 324b 9c3f
00000540: 18eb 24f0 929f bbbf 0617 32c6 b8ee a43f
00000550: 46e2 a3bd 6481 c1bf a697 b789 e683 bcbf
00000560: 5334 b2e1 0b6b b8bf 068b 9854 62ea a73f
00000570: 7bc4 da64 195e b53f 64bb 6be2 22ef a73f
00000580: 9e05 eb0e 53c8 b7bf b48e 8f5f a456 c03f
00000590: 68d0 16f5 9fd8 bebf 1f0d 8b86 2d73 bf3f
000005a0: f43a 77f9 539d b13f 496d 765d 65c3 b33f
000005b0: d4b3 6499 2ffc b03f b76a 2a3e fc47 abbf
000005c0: b740 3653 353d b9bf 51f7 e600 f64f bcbf
000005d0: 96f9 57a2 3ffe b1bf 5540 14dd e985 c0bf
000005e0: fd59 d630 86e3 91bf 9642 e9b5 0d7e b43f
000005f0: e29b 23e4 3e14 c2bf 008a 2bf1 de49 a0bf
00000600: 98d3 b200 b2b8 b03f ff61 3263 3b69 bc3f
00000610: ea20 ec06 ebd8 a53f 0005 dccf 9dbe a33f
00000620: 817d 7028 dc23 863f 2fb4 9c7a f7ff c13f
00000630: 63f6 5e9d 14d1 aabf 83fa e277 e48d b1bf
00000640: 4b89 8851 e951 ae3f a0db c94a cc1d 73bf
00000650: ab18 db4a 1c32 b0bf ad9e af23 be1e b7bf
00000660: 4b12 e184 98f5 b5bf 6569 b6a9 2c5e a63f
00000670: a91d d43b 565d c0bf 5599 d1a9 fc55 b33f
00000680: 2f0d 4a64 0af2 bc3f bc98 3cf1 990b c2bf
00000690: f96b 648c 20f8 c13f 777b a18b 6df2 aabf
000006a0: 506d 959d 1509 be3f a0d0 84e3 cb16 9bbf
000006b0: 32d3 e3cd e879 c03f 8071 6c63 ffed 913f
000006c0: 06f1 79fb a157 c33f 09ae 3d60 0cf8 82bf
000006d0: 6868 dd9a 0a4a c3bf d745 7c98 0998 ba3f
000006e0: 9976 1a13 5521 bcbf aec4 5466 eaaf a33f
000006f0: 162b c9e9 ee97 a53f 6c4b 8684 69ff bbbf
00000700: 0fc8 d362 796d 823f 393c d704 e1fb c13f
00000710: 2378 1702 066b ba3f ff05 92c4 9a50 6dbf
00000720: a405 dfcc 688d ae3f 8158 614b 2a84 9d3f
00000730: 6435 10c0 e884 bdbf 365b c5c3 20c0 c0bf
00000740: 6e94 c373 42b9 c13f 09b8 a3d4 826f a7bf
00000750: 7c14 3724 d692 a2bf 7c9c 892a ff7a babf
00000760: 2c9d 0be3 6b2b c3bf 31f0 b789 d6da aebf
00000770: 3385 563a af71 51bf b748 273c 0ca5 c1bf
00000780: 5d1c 4d71 0ee5 a13f 6151 54ca c928 a5bf
00000790: 03d2 3750 0f47 9bbf c721 1610 2156 af3f
000007a0: 95f7 f6c5 182d d0bf 1abc b4cd b503 b83f
000007b0: 5d91 6ff4 97a9 aa3f 9599 47e3 1acb a83f
000007c0: 751b 7055 5fbb 963f e129 45c1 9e54 c4bf
000007d0: 378b f962 d24d bf3f 160e b997 6ce7 babf
000007e0: e9b2 afdf 3f68 bf3f f891 6c13 1ed0 a9bf
000007f0: cec0 2157 d816 9e3f 2cde 9429 97cc a33f
0.10515713470131063 -0.05670130732504535 -0.13553768608212952 -0.1174418243552362 -0.07429167316922582 -0.1409089251193139 0.0021244883318529504 0.046624794126156985
0.16098805173564185 0.03905749751511465 0.10899910368567388 -0.025509660381701976 -0.05815724799279215 0.14122547781276548 -0.06605603576221201 0.1444201441251125
-0.11152497732071952 -0.09240614807915591 -0.08550849889373865 0.0007002106539860672 -0.12614875251042923 -0.06678557380930811 -0.11606454703593481 0.15296264165669238
-0.14449620661254997 -0.08103208094117731 0.08480184950913787 0.10793354554062398 -0.05656207598220292 -0.028703205936405293 -0.048828030764092346 0.07918294768128757
-0.04808756712656084 -0.042104897232837585 -0.08810565850399564 -0.12710836441033754 0.07978158276631514 0.1073653380973383 -0.16039473836546989 -0.0004407122606284941
0.12868137433836996 0.01671360408369512 0.08905623324894858 0.008475451025278507 0.08160163864012888 -0.04706477248088507 0.03747358868742486 0.03239174018370437
0.0027218084672716446 -0.12811614416256875 0.10646837248166638 0.03953949881450619 -0.12859047794837783 -0.11517931462949865 0.138507994798627 0.14738304318343767
-0.1529953059231396 -0.09480596973858871 0.021216523683532593 -0.07776669628261162 -0.024543324450318423 0.043361907520976704 0.1350253454376937 -0.04241199143240302
0.08465140554492935 0.0078415780452063 0.15113304437844416 0.01601790930779458 -0.13814340756596763 0.08382059012280534 -0.14876857741071167 -0.0041845830054044846
0.09525023988049193 0.06443988813439298 0.0982231250861606 0.0377418963289772 -0.12852817474592254 0.08981789906354677 -0.09502264962079855 -0.07023155538958036
0.08193489811404024 -0.16203082531596474 -0.0477244385621654 -0.021045081633638905 0.13569771363677455 -0.061058516679927816 -0.057563533383518724 -0.03781180952030024
-0.08454484767750964 0.00023910899545009486 -0.11093582403048892 -0.045064248283555104 0.13579520731554173 0.05802565714959091 0.030945282863962142 -0.10069880722439342
0.131593369345878 0.02303400835029854 0.022134106407378805 0.06030756593230577 -0.08826304365406165 -0.05075767863437147 0.058199022467790594 0.1266773190783118
0.11326089668381359 0.026093554798430896 -0.012842351912948085 -0.0441013940241377 0.04659767832040411 -0.12765491875584614 0.05852646780450921 0.09873894143616503
-0.053658836170422414 0.04218651234279356 0.01627262513167529 -0.11999910281940576 0.10457146766584643 -0.05693665193306138 0.06577390934638687 0.11546542107982845
0.06650132044331582 -0.10590773084213485 -0.0031241275790316802 0.07076710826182861 -0.05460522797210144 0.01641532056329049 0.1536764151849333 -0.08613834916524167
-0.04652443236588792 -0.0021436323680938127 -0.10591090998233817 0.018331102210473595 0.1395596987926871 -0.08551712000002755 -0.11058343926682364 0.0701034489777539
-0.16345614617317167 -0.0150265612713063 -0.030718374274694222 0.12606412970906794 -0.009756057213001499 0.04354406925891909 0.07890858688487516 0.05477191351255288
0.014358122198254554 0.004936464575659153 -0.2056490724152311 0.08397589979593846 -0.11768802006392522 -0.11922918337169065 0.05374516947373321 -0.02808529704362474
-0.02898280246271574 -0.13279935034634338 -0.06612880157922267 -0.02889830124559063 -0.05884738719461066 0.03450516257382914 0.1487053856923413 -0.05111935111137049
0.15857389479804926 -0.05320804639760754 0.07119742820546929 -0.05555061303996353 -0.001468575698516621 0.002890724541361161 0.10667244663727042 0.027630606283515373
-0.10790365565200621 0.04088380259876882 -0.13676127681516642 -0.11138764250026031 -0.0953833986297508 0.04671008379616208 0.08346708977002663 0.046746339930783504
-0.09290045847139658 0.12764410654118807 -0.12049293264027627 0.12285122427697502 0.06880688515159844 0.07720025569726831 0.06634805197673127 -0.053283579433999355
-0.09859021455327165 -0.11059510728861467 -0.07028577531307287 -0.12908671660307172 -0.017469498377602467 0.08004842463675241 -0.1412428487739979 -0.03181358999224315
0.06531822697691181 0.11098071262166086 0.04267057857038188 0.038563663123577285 0.01081058500682164 0.14062398421211372 -0.05237640782386845 -0.06857135703010368
0.05921868438987817 -0.004667089477712688 -0.06326462581191332 -0.09031284686318015 -0.08577874416466462 0.043687244145263184 -0.12784841462437882 0.07553080697980381
0.11306824634998656 -0.14097904471527112 0.14038473944751198 -0.052630828184866134 0.1173261174894169 -0.02645414901890375 0.1287203793832759 0.017509451335273152
0.15111183909528608 -0.009262177168884571 -0.15069706498872226 0.10388240788258628 -0.10988361088171884 0.03845150469931845 0.04217478374319776 -0.10936603055442412
0.008997867897480942 0.1404992364536797 0.10319554854456263 -0.0035784743127471592 0.0596726179205789 0.028824482775541064 -0.11530928315206307 -0.13086328086020566
0.13846617367304098 -0.04577263684937811 -0.036276523514552544 -0.10343928135408648 -0.1497626169795948 -0.06026335173734799 -0.0010647021493713326 -0.1378493589132341
0.034950686770166974 -0.04132681460228827 -0.026638259192582236 0.061203988279035886 -0.2527524884461568 0.09380661270255111 0.05207514628253549 0.04842456840906376
0.022199143972126707 -0.1588324016286853 0.12228121677757718 -0.105093752900807 0.12268447123615157 -0.05041593539343475 0.029384022062402697 0.038670276475781

net.2.bias f8 [128]
00000000: a9ad b08e c664 843f 4a38 f394 8417 acbf
00000010: 5e80 0d06 2d7d b4bf 12cf d72b 806e 7cbf
00000020: a780 325b f358 81bf 68fa 4c02 5c69 8fbf
00000030: 525b daff 5509 a7bf 54c1 7f61 76e6 97bf
00000040: 25a9 a9f5 0e20 b03f 04f7 fb45 b797 9b3f
00000050: 396c 0358 d63d 9c3f 74c5 c5b4 526a 7b3f
00000060: e1ef 7f7d f66d 6abf 8ae8 3741 7eaf 8b3f
00000070: 9c21 8d25 4ee4 9b3f 738b b156 3561 88bf
00000080: 3e1a 274a 8bc3 54bf 0644 0fc2 9147 81bf
00000090: 9933 9c6e b6be 81bf d80c a1e2 667c 9d3f
000000a0: d0e2 80cc c43b a1bf ecb0 8dad 633e 77bf
000000b0: 31ee d61f be9e 82bf d419 9c9d a3c6 823f
000000c0: 577b 2747 99f6 9c3f 56c3 69fa e251 7abf
000000d0: 4e8c 3203 9341 b4bf ac19 f1ca 7435 7b3f
000000e0: 1a52 7d0f 42c2 6b3f 6124 eb0b a98c 993f
000000f0: a65d 0631 1c78 8b3f 0718 6e92 93dc 983f
00000100: da0d 6176 ec4e 85bf cf1a 6539 f9e7 8dbf
00000110: 0d2d b17a d068 87bf 14ff 8a89 2c90 853f
00000120: 5be8 1d06 4eb9 9e3f 0adc c1f3 1975 673f
00000130: d6a7 f07e 17db 973f 926d fc54 e3ba a63f
00000140: 381f c6ef 1768 b23f e964 0724 6010 76bf
00000150: 4ae5 7617 d0e7 82bf b5aa d9a2 47c4 ad3f
00000160: 5e26 337d 5764 99bf f778 5e54 0a85 733f
00000170: 2a97 eda8 c9dc 80bf b490 c619 393a a33f
00000180: 6e8a 1d0e 9472 2a3f e02a 9ded 177f 823f
00000190: 7b48 4c88 ad0c 83bf 05b5 90d1 425f 7fbf
000001a0: 3013 9d9e adb8 a4bf 91e6 beda c48c 9f3f
000001b0: 3a7d 514d d5a6 93bf 98d5 237b b9c2 a8bf
000001c0: 31ad 4bc1 aaf0 87bf 7e3d 1904 37a5 9cbf
000001d0: c1e0 358f 29d2 b0bf a4b2 1dd5 e430 9a3f
000001e0: 64c9 bde3 e1c1 a83f fa11 55c9 d40a 6dbf
000001f0: e1ae 90f9 83af 893f aae6 8a18 1152 92bf
00000200: f822 4516 c812 58bf 230b f501 09dc 65bf
00000210: d87f 501c d596 a3bf 1f0f 8346 8ce3 8d3f
00000220: bc96 cd7f 7f9d ad3f c9d0 8215 e42c a43f
00000230: f8d3 5927 6ccf 983f dc20 ec9e cf56 74bf
00000240: d60d c099 d0c6 933f 069c 0c44 3af6 a53f
00000250: bdd8 d109 8716 653f e5bc 0024 07da 6e3f
00000260: 8a8a 05e2 8f41 8fbf d3d9 dc7d 6d9f a6bf
00000270: e896 eb83 0be0 613f 7536 402a 80b8 903f
00000280: 9a3b d8c3 d2cd 83bf c789 eaa2 3873 90bf
00000290: 3ff6 21c2 db8e 96bf 2d43 132b 0153 7fbf
000002a0: 2fe0 dd03 1fa5 893f 2625 b441 7fb1 813f
000002b0: 6222 3c69 8020 a1bf c41e 12e6 17f4 9c3f
000002c0: 5aa1 ae8b ed7e 8d3f ac2b 31fb 3280 9dbf
000002d0: 02ed 1391 a974 843f 71c2 5678 f77c 91bf
000002e0: 1bcf d006 3340 9abf bf92 1581 5f9d 8a3f
000002f0: b8d2 c358 0039 8e3f 2ba0 ede0 c6a4 a1bf
00000300: a605 802f 3f34 933f bf94 9a02 014a 82bf
00000310: cefa bd56 4585 b2bf 0bca 37e2 a149 84bf
00000320: 523e 0ef2 fce7 363f 8e7e e992 2078 94bf
00000330: 856f 8965 d5a3 73bf 4015 c182 2667 73bf
00000340: ebfa e1ca 9511 6c3f 7c90 8a28 7ec1 9cbf
00000350: 9f07 8288 159b a7bf fc6d b838 d77b 933f
00000360: b40a 764d 12a0 7fbf 2ef1 042b 7683 97bf
00000370: 74bd 1d48 a30f 85bf 6586 b167 1f0d 88bf
00000380: aec0 db7d bc1b 9a3f b5bc 108c a26d 7abf
00000390: c7d0 3795 3010 60bf aa0d 47d1 313b b03f
000003a0: 1b78 9a16 58ff a33f 6aea c425 5bd6 a3bf
000003b0: fcc7 205a 2f36 663f 5aff 66b6 9aaa a33f
000003c0: a96f 04e1 f5fa 963f 4800 837b 5667 9bbf
000003d0: 4d17 4054 d2c7 973f 2626 2d13 4466 8e3f
000003e0: 1b2c 73af 36de 8dbf fcb8 2d0e b3f8 a63f
000003f0: 7c8a 02bb f21f aabf c8b6 3645 fed6 91bf
0.00995783923106937 -0.05486692732084515 -0.08003503225109074 -0.006941319149962559 -0.008470441074962599 -0.015337675876819293 -0.04499310253338841 -0.0233400818833059
0.06298917291284008 0.02694593777322664 0.02757964050475101 0.006693194456930274 -0.0032262624990817422 0.013518320432002424 0.027238102952908613 -0.011904160221268367
-0.001267324471528788 -0.008437288984994861 -0.008664536715082426 0.028794868070929208 -0.03365912433986795 -0.005674733511892276 -0.009091840120951296 0.009167936560982172
0.028284449546727455 -0.006425749429227098 -0.07912558391630961 0.006642776700635993 0.0033885278934724485 0.024950639107178655 0.013412685629005616 0.024278932392483934
-0.010404441225666018 -0.014602610649160934 -0.011430386299386553 0.010528896281698098 0.03000375664075992 0.002863455474706016 0.02329670631676336 0.04439459240367251
0.07190084079604453 -0.005386710691220411 -0.00923121043784882 0.058138121251280074 -0.024796835915174113 0.004765549039716036 -0.00823361918237316 0.037553581615868664
0.00020177895845126546 0.009031474055196609 -0.009301524850830347 -0.007659207353794222 -0.04047148286057334 0.030810428477457356 -0.01919110569394642 -0.048360630304084384
-0.01168950464621918 -0.027973994851263388 -0.06570682283734454 0.025577140338486473 0.04835420517965153 -0.0035452037797389898 0.012541800550102735 -0.017891184924087845
-0.001469321629956775 -0.0026683975153515434 -0.038260135370591974 0.01459416952309983 0.057842239714586324 0.039404990793089185 0.02422875394991661 -0.004965601938927668
0.019313105949562225 0.04289419251136199 0.0025742185085234335 0.0037660731759597715 -0.015261768422253814 -0.04418508683595559 0.0021820282848804447 0.016328814104829854
-0.009669920541481681 -0.01606453413354261 -0.02202933666602846 -0.007647518695379313 0.012521974854948407 0.00863933009397273 -0.033451092573220334 0.02827489225140202
0.014402252030621444 -0.02880935342936268 0.009988140811847849 -0.017078272552398525 -0.025635525980944523 0.012995477797354991 0.014757158955469904 -0.03446027274804949
0.018753993295836623 -0.008930213825190212 -0.07234605186202289 -0.009906067577479602 0.0003495209257886367 -0.019989499060442166 -0.00479491575296354 -0.004737043793345663
0.0034263539919828687 -0.02808186647838838 -0.04610507289272835 0.019027102314892005 -0.007721015448057745 -0.022962423682870874 -0.010283733022986331 -0.011743779518101858
0.0254964305703999 -0.00645221228573616 -0.0019608448872024706 0.06340323790850869 0.03905749584122039 -0.03874478183793857 0.0027113842816328653 0.0384109828623866
0.022441713198631117 -0.02676139000755054 0.02322319640372621 0.014843494258133094 -0.014583995084100512 0.04486617611006413 -0.051024995163307246 -0.01742169663855611

net.4.weight f8 [128, 128]
00000000: d3cc bcce 8134 a4bf 0f25 1308 76b9 9d3f
00000010: 6ec1 1e97 32d4 bdbf fc33 4a4b 257a c73f
00000020: 5e92 4816 7c29 b73f 0919 6f2c 0688 b33f
00000030: 8e58 af74 e1b0 c13f 08ad a902 fef3 a83f
00000040: c92f d151 e63e 8ebf 4ec5 4bf0 91ea babf
00000050: 3fbb 30ba 8fcb a43f c8a5 9e75 444e c43f
00000060: 7179 39a8 c3bd 963f 9373 04df 9b13 923f
00000070: 4052 4da3 1488 b2bf c320 c3dc 4539 b33f
00000080: 7ab6 1b9a ad4b c3bf 52c5 cf5c 98ad b3bf
00000090: d130 a2d4 b084 a5bf e732 8ddb 2c9a abbf
000000a0: 22d1 da3e f38f 873f 8862 37ae 559d bfbf
000000b0: e419 eb70 e195 883f 745a 520f 54ae b8bf
000000c0: b065 5fb9 0e16 c13f 1b87 3289 7d6d b03f
000000d0: aadb 0384 50d7 b0bf ca9c d7e7 1307 a43f
000000e0: efdb 045e 0fd3 c13f 8d2b bf97 6fda ab3f
000000f0: cf86 3d5b 0527 b83f 709d 37cc dbc2 c23f
00000100: e9d2 2c87 c24a b03f f729 2657 265c b2bf
00000110: 3957 854a fb7f c43f c403 983d fcba c23f
00000120: 71b0 93af f0ef 903f 77f0 084b eb6e c53f
00000130: 4876 bcec 8842 a5bf 4c3f de1d 1c59 bbbf
00000140: ac5f 0b0f 8033 c2bf 9395 a913 23f8 a4bf
00000150: 781c 23ff 96ff bbbf dc32 af1a 2ad4 b43f
00000160: d76d 0df6 b820 bc3f 9c79 bd28 1a77 a4bf
00000170: 4cc6 a262 3e58 babf 5385 e4a2 c23a b7bf
00000180: 9000 dd26 aaf5 c1bf b9cd 2914 1779 c1bf
00000190: bfe4 b5b6 ddef c13f 1d46 0b88 f13f 9e3f
000001a0: f5ad da02 43b0 b93f eb95 f692 03a4 c23f
000001b0: 08cc b6f2 1168 babf c023 5697 4ece 8cbf
000001c0: 97da 9712 543c c4bf 142a 59e8 fc1a bdbf
000001d0: aecc b7ae 2b3e aabf 5e1c ca0f 3e04 ac3f
000001e0: eec5 e409 fed2 c0bf 41f1 cbfd 6569 a83f
000001f0: 50dc d4ea 9cce b1bf fa62 afba 2dce bd3f
00000200: dd94 5dbf ab76 a4bf ed45 546a 89dc 93bf
00000210: 1137 1203 47c4 79bf effb 6e8b 6e91 c13f
00000220: 36bd af57 42cc a03f 22ef a392 8a73 b4bf
00000230: 5060 500e c4a3 c33f 3de2 0eb2 0315 b53f
00000240: edd5 88a5 5669 c03f 803c 7607 1e6d c1bf
00000250: 95b0 bd8b ccab 9d3f 0ec9 7a54 fdab c03f
00000260: 40ad dc48 5210 97bf 3fb9 d6c5 1881 a73f
00000270: 0c53 afdb b4f7 a8bf 9b52 facb 5476 a2bf
00000280: f423 58df fd82 a8bf 71e7 f177 44ef c03f
00000290: ea82 a2cd 9491 bebf 7857 287e c825 c23f
000002a0: 159c a2c1 8264 9f3f 0c06 f2d5 8c12 c1bf
000002b0: 8654 23a0 58f2 7a3f ed5b a47f e042 b0bf
000002c0: abe9 ed6e 47fe 983f 0430 c04d e4d9 b93f
000002d0: ef84 d753 89fe 933f b10a 19b8 7f6d c03f
000002e0: a9e7 05c8 b491 b73f 48be dfec 517d bd3f
000002f0: 32ff a287 a21e 893f 7d5a 60b2 f7a6 67bf
00000300: ea74 647d fe44 ac3f 27c0 780e bcb1 c1bf
00000310: 56b3 6e9e 165a a13f dd8d 91df 3f49 b3bf
00000320: 8b36 b6c4 37cd b93f 669e e84e a6dd c13f
00000330: ac03 4ba6 f76d ab3f 1a54 0645 e7b3 ba3f
00000340: e593 810a b3ea aa3f ace7 f5de 3cd1 b2bf
00000350: db02 261b 9c2a b0bf 6448 b084 c991 b53f
00000360: c6d6 ba3b 8460 babf 9252 481a 749d 9fbf
00000370: 0a42 fa4f 3fb4 a43f 0425 a495 d2de ae3f
00000380: 5fd4 2aa0 96be a6bf c8ad 3cd2 203b b8bf
00000390: a519 cc90 6be3 a1bf f88e 9a78 beeb afbf
000003a0: ab43 b7de 386c 93bf 8e11 6259 d633 bd3f
000003b0: c9bd dcd4 77dd 953f ae56 5b4b ebb9 c03f
000003c0: 415d 5c04 b55c b23f 686c 9892 1974 a73f
000003d0: d9cb a69d e8da c4bf 794a 663b db78 bebf
000003e0: 5cd0 4be6 b635 aa3f fb71 accd 0c9c bfbf
000003f0: cf39 48ab 07e2 b43f 904c 1e9a 5d35 abbf
00000400: 1eb9 eed9 a5f6 bd3f 235d ee20 99f6 93bf
00000410: 7566 7979 bc9f b03f ebf2 2ded a4cb 903f
00000420: e76d 61f3 d517 c0bf 0fe7 797f bab2 bd3f
00000430: 0930 01b3 2056 9abf f15b 2cc2 2083 bb3f
00000440: f98d ff2d c5b2 833f 2375 93ca 27af a5bf
00000450: eb93 1b5e 9ebf bcbf 6bf3 0f2b 66d4 b13f
00000460: 9b33 517f b41c c1bf 9fc5 689d 2718 c03f
00000470: b7d1 e412 070b 553f e17a d97e 76c3 c43f
00000480: 1008 43d0 4d39 80bf 6d98 ce3a 5afd 9ebf
00000490: d7d5 e3d4 62d1 b8bf 7447 5b75 2b1b c0bf
000004a0: 3b8f 2786 29fd ac3f 425f 1ea3 e07f c2bf
000004b0: 267a 5528 fc2d b83f 96be 76b4 c7de c0bf
000004c0: e1b1 7972 02b0 843f 31ec 637e 14b9 8e3f
000004d0: 4b12 1b8c 580d bf3f 7bba 5548 51fe bfbf
000004e0: bf36 7702 690d 8bbf 2b0f e86c 4b54 b0bf
000004f0: 1c44 f9fb f98a b1bf e2c6 dc5f bb38 afbf
00000500: b34c 1adb fdbe a0bf 864e 714d 72bc c23f
00000510: e26a f344 fadf 873f 36c0 a320 ab1c 9abf
00000520: 7764 026d 58e3 bb3f 22df eab8 e9a7 a83f
00000530: 7cb4 27e0 e405 c03f 3d0a 467e 5aa0 723f
00000540: b810 2792 3448 8d3f 98e8 c762 d74b bd3f
00000550: d065 04f9 130f 94bf 7b57 d40c d7ce aebf
00000560: 7b43 30e4 3274 c03f ec0b 1001 8e6f ad3f
00000570: 6d17 cd9c 2463 ba3f 4c84 59e6 fd23 b93f
00000580: ef7c 31b4 70ac bbbf ad46 20e5 bba9 c03f
00000590: d3c1 f6f6 3332 a9bf fe75 4f08 cc10 b53f
000005a0: e821 1856 1362 8abf d0dc 7ec2 950c a1bf
000005b0: 751c fe49 89f0 99bf e5eb c3bd 46c8 be3f
000005c0: a683 4d22 a61a b53f 0ea0 6285 696e c13f
000005d0: bd07 6fd7 483b bb3f e306 7213 dc90 b83f
000005e0: 2c62 dfa4 419e babf 33c8 f741 187d a4bf
000005f0: d84a 61a1 fa9c b23f 849b d432 d096 b0bf
00000600: 4684 6227 9294 9bbf 0962 bfc4 adf0 c1bf
00000610: 73e5 292d 57bd b43f ace6 8720 9a73 b5bf
00000620: 5567 88b2 4d2b bcbf dc65 3ac9 0aaa b2bf
00000630: 7d6a b390 2944 a0bf 82bb 818c 8789 90bf
00000640: d8ca 18f8 83d2 b03f d3cf 0bf0 a6f3 9c3f
00000650: 463c f9f1 2c37 7b3f f020 dfb2 2470 ba3f
00000660: 7b79 fb5a 14d0 c3bf c985 3dc2 7cbd b3bf
00000670: 0ea7 5574 8426 b3bf 7a8f e89b e5d7 b43f
00000680: 3284 2769 b2b6 bf3f 2553 2a53 bc95 b23f
00000690: 2d1c 9bca 83e1 b83f e716 143a 0591 a4bf
000006a0: 3b8a 17eb 0ab5 b9bf 698e 0f84 4a18 b73f
000006b0: f46f 891c de84 af3f 1428 4e13 3520 b9bf
000006c0: d5f6 f9aa cd63 b9bf 18a5 60df 940b c13f
000006d0: 8af8 a1cf 7bb7 b03f a49c c7da 0931 acbf
000006e0: 086b 45cb 52f8 633f be41 c752 7b4e a53f
000006f0: 6039 d596 76aa b6bf dd7d 9a90 3208 a5bf
00000700: aef3 68cb e408 823f 1eef 443c 274e c23f
00000710: 7c74 e316 4b24 b9bf 836a 7d1c ab02 9ebf
00000720: 5635 e4ce e4b8 c33f aef6 7ab9 6715 a63f
00000730: a2b5 e3bd 88ac be3f 3709 47ff a6ca b5bf
00000740: 4465 c006 242b a43f 1ef2 0114 864c c0bf
00000750: 9292 16ac 85fc a83f ea6c ec22 448e b6bf
00000760: c4fa 2965 33fd 623f 07da 8623 8fee b43f
00000770: 6ca8 24f6 22fc babf 8c73 b2a9 681a 9bbf
00000780: ee59 09a0 c64d adbf 1753 8ede e8b2 b33f
00000790: 4d7d 7027 3aa4 ba3f f3e5 62fe 3f23 c43f
000007a0: c9b1 8d0f 673f bcbf 4b2d eefc 5b36 b43f
000007b0: 6bc0 bc84 ec6c c33f dbe3 afeb c771 b8bf
000007c0: 62db a3c0 6d1d c1bf d97a 1ea3 e86f bdbf
000007d0: 285c ddb4 ab15 b93f 6324 e897 61a7 7dbf
000007e0: a266 9243 5e22 c2bf 619c db92 f3f8 643f
000007f0: 1b41 b4a2 efcc c33f cc18 9c2c 1db2 bc3f
-0.03946309708262565 0.0290277903011758 -0.116519128698888 0.18341509033453451 0.09047675651579243 0.07629431328595983 0.13821047017581062 0.048736512970970536
-0.014768409129963704 -0.10514175526238498 0.04061555049735554 0.15863853209638834 0.02220826830159112 0.01765292690935245 -0.07238892542711373 0.07509266509726147
-0.15074701332871482 -0.076867602023204 -0.04202797504066925 -0.053910638619162836 0.011505031924891333 -0.12349448684052267 0.012004624613280286 -0.09641003965439571
0.1334856419696684 0.06417069053216233 -0.06578543875717338 0.03911649899583265 0.13925354090471795 0.054400908731245236 0.09434541204020806 0.1465716120867273
0.06364074516461539 -0.07171859386122735 0.16015568865503285 0.14633133895406847 0.0165402991450922 0.1674474827176515 -0.04152324571462579 -0.10682845811083758
-0.14219666227904548 -0.040955635214042684 -0.1093687413114014 0.08136237288926956 0.10987430579319067 -0.039971177552376974 -0.10290899189092179 -0.09074036099311415
-0.1403095903169782 -0.13650787815605073 0.14013263150608243 0.02954080002638736 0.1003457910507491 0.14563030887545322 -0.10315048385272985 -0.014065374368117278
-0.158091076925946 -0.11369305298391225 -0.05125557430064852 0.05471986716025222 -0.13143897517288344 0.047679126006161095 -0.06955891354742616 0.11642728622190282
-0.0399678870296982 -0.01939596854669461 -0.00629070033131797 0.13725072677877345 0.03280837364570248 -0.07988802032553768 0.15343523692058847 0.08235190484163808
0.12821467478504137 -0.13614249576901116 0.028975673703300748 0.13024870514852477 -0.022523198792595567 0.04590680518173195 -0.04876485044193232 -0.03605904569591197
-0.04787438727732499 0.13230186325727858 -0.11940889377957445 0.14177805099523844 0.03065685564856942 -0.1333786053328797 0.006578775590431301 -0.06352046123753015
0.024407497544851314 0.10098101518832442 0.019525666944791572 0.12834164132262552 0.0920670498216213 0.11519348176056454 0.012265462650588786 -0.0028872335269725644
0.05521388321560912 -0.13823652941346262 0.03389044460286665 -0.07533644874779762 0.10078762581380311 0.13957671025240187 0.05357335953659201 0.10430760798620078
0.05257186415909824 -0.07350521510480118 -0.06315017378620828 0.08425578584163557 -0.10303522547004737 -0.030874075035245037 0.040437677872549996 0.06029375149416619
-0.04442282395522378 -0.09465222485294256 -0.03493820326370959 -0.06234545919622109 -0.018967522233484562 0.11407222444728957 0.021352646224100078 0.1306738012269099
0.07172709804978174 0.045807646889635845 -0.16293056199864855 -0.11903162193474683 0.051191058742831 -0.12347488423660728 0.08157394344036749 -0.05314152246787629
0.11704479761713002 -0.019495384821849215 0.06493738141707601 0.016401841141020872 -0.125727409208465 0.11600843059741471 -0.025719176221443294 0.10746960392530959
0.009618320909743782 -0.042351954916492816 -0.11229886815597438 0.06964720298124198 -0.13368850914630745 0.12573714433669367 0.0012843674736134744 0.162215053499458
-0.00792179862799361 -0.030263337935729263 -0.09694497773656195 -0.12582915525723204 0.056618974329266845 -0.14452751126077074 0.09445167526926265 -0.13179870902739727
0.010101336592207967 0.015001449687124776 0.12129739208746419 -0.12497432723987771 -0.013209171664949946 -0.06378623398637433 -0.06852686311437178 -0.06097970528788978
-0.03270715045541674 0.14637593060853166 0.011657672147000257 -0.025499986521879424 0.1089377657066438 0.04815607435506154 0.12517987198899394 0.004547456254274493
0.014297877035353998 0.11443849717753307 -0.019588768075754548 -0.06017181426629655 0.12854610578554201 0.05749171984646026 0.10307530239250946 0.09820544122477876
-0.1080999793934898 0.13017986953541563 -0.04921114339538559 0.0822875519074486 -0.012882376732719927 -0.03329914092267361 -0.025331635609770992 0.12024347432081546
0.0824378808733984 0.13618201268150226 0.10637336024868112 0.09596038317433968 -0.10397730136117705 -0.040016897251817694 0.07270780982916436 -0.06480122796038584
-0.02693394055734568 -0.14015743357482816 0.08101410725239137 -0.0837951974316648 -0.11003575905524816 -0.0729071370391447 -0.031770037568738176 -0.016149633360722067
0.06571221167613872 0.02827320900082937 0.006644416396354441 0.10327367178900082 -0.15478758280273638 -0.077110097333864 -0.07480647888374056 0.08141932541235333
0.12388148371930255 0.07259728460696786 0.09719108292038987 -0.040168917979867484 -0.10041874160337098 0.0902144024290067 0.061560574515823335 -0.0981476947910383
-0.09917912887791698 0.13316594035249163 0.06529973811299974 -0.05506163402224587 0.0024377457686289884 0.04161439309575908 -0.08853856260723125 -0.0410781671064304
0.008806025941447828 0.14301004832111003 -0.09821004208375145 -0.029307054151426214 0.15408001043435132 0.04313205851711409 0.11982016216253169 -0.08512347919807871
0.03939163763443301 -0.1273353192990649 0.04880159116445272 -0.0881083092939893 0.002318001156992851 0.08176512353279729 -0.10540979871135087 -0.026467929227340245
-0.05723400786944298 0.07694869454855922 0.10406840765835064 0.15732574387747852 -0.11034244661067939 0.07895445752199241 0.15176159364046113 -0.09548615936354514
-0.13371059328320728 -0.11498884184264159 0.09798691907541068 -0.007239705299533747 -0.14167383479507573 0.0025601155565371657 0.15469165272271188 0.11209280337434108
