runs/firn_default_20251127-094242/model.pt (torch, 37425 bytes, 7 tensors)

net.0.weight f4 [64, 2]
-0.2582127 0.02398298 0.07264333 -0.116596594 0.28825676 -0.11644072 0.06931839 0.20789164
0.17580806 -0.02515299 0.30707303 -0.032801397 -0.2562909 0.21998361 0.26782683 0.13310151
0.31216857 0.1617314 0.15435967 0.17398486 -0.31077674 -0.0042686886 -0.08765789 0.07910366
-0.35307938 0.014452921 0.117661424 -0.10903014 -0.113962054 -0.18986964 0.07948206 -0.25438023
-0.0054904027 0.01981055 0.09542998 -0.25035524 -0.041583266 -0.11004928 -0.032220613 -0.21705486
-0.18576913 0.043924633 0.04197528 0.25165403 0.27097765 0.219044 0.08400755 0.20502932
0.066597 -0.27653998 0.061460283 0.02953049 -0.19117196 -0.081565104 0.236611 0.20878175
-0.06517911 -0.10731403 -0.14565521 0.16990164 -0.2191968 -0.20454653 -0.18755281 0.066662535
0.39693978 0.06078544 0.12486013 -0.23462602 -0.2160782 -0.17317438 -0.22368549 -0.13520877
-0.22096173 -0.08436774 -0.16766863 0.093806505 -0.15667033 0.013491752 0.10339167 -0.2620942
-0.15200828 0.017896494 -0.19051506 0.1471937 -0.24103093 0.19575709 0.32691765 0.0596354
-0.12199737 0.18787615 -0.20928943 -0.0062769204 0.19544996 0.27264905 0.043645047 -0.020964157
-0.007978375 -0.28591916 0.03241056 -0.22099563 -0.020890828 -0.069200076 0.21173035 -0.114661194
0.22950697 -0.052501265 -0.06037838 -0.27001417 0.3023787 0.014736083 -0.3948556 0.012774845
0.09052598 -0.0648429 0.28416583 0.14200561 -0.043472726 0.2938864 0.24546628 -0.050329518
-0.21170998 0.08891258 -0.097129524 0.17222005 -0.32711586 -0.1409653 0.11917277 -0.27329025
00000000: 7434 84be f477 c43c 07c6 943d 32ca eebd
00000010: 6496 933e 7978 eebd cdf6 8d3d 8ce1 543e
00000020: 0707 343e a50d cebc ad38 9d3e c25a 06bd
00000030: 9038 83be 6243 613e 9920 893e c34b 083e
00000040: 8fd4 9f3e eb9c 253e 7610 1e3e 1629 323e
00000050: 211e 9fbe 5be0 8bbb fb85 b3bd 1a01 a23d
00000060: d2c6 b4be f2cb 6c3c 79f8 f03d 324b dfbd
00000070: f064 e9bd 306d 42be 7ec7 a23d 203e 82be
00000080: d6e8 b3bb bc49 a23c cb70 c33d 902e 80be
00000090: 3753 2abd 8461 e1bd c3f9 03bd a143 5ebe
000000a0: 433a 3ebe 51ea 333d 45ee 2b3d ccd8 803e
000000b0: 95bd 8a3e 124d 603e 260c ac3d 35f3 513e
000000c0: 0264 883d a696 8dbe c7bd 7b3d ede9 f13c
000000d0: 95c2 43be 9b0b a7bd 274a 723e e2ca 553e
000000e0: a07c 85bd 75c7 dbbd a426 15be b2fa 2d3e
000000f0: 2075 60be a574 51be d80d 40be 5e86 883d
00000100: b13b cb3e 27fa 783d abb6 ff3d ce41 70be
00000110: 9b43 5dbe a054 31be cf0d 65be 2b74 0abe
00000120: cb43 62be fec8 acbd 53b1 2bbe a01d c03d
00000130: 306e 20be 820c 5d3c 03bf d33d 3631 86be
00000140: 0fa8 1bbe ab9b 923c 6116 43be f2b9 163e
00000150: d0d0 76be 8c74 483e c061 a73e 4044 743d
00000160: c2d9 f9bd 9b62 403e f84f 56be a0ae cdbb
00000170: 0924 483e a898 8b3e 26c5 323d 06bd abbc
00000180: bbb7 02bc ff63 92be efc0 043d ae4c 62be
00000190: 3e23 abbc c5b8 8dbd d7cf 583e 7dd3 eabd
000001a0: e003 6b3e 910b 57bd 524f 77bd 4c3f 8abe
000001b0: 62d1 9a3e 9d6f 713c 832a cabe 954d 513c
000001c0: af65 b93d 5bcc 84bd 2f7e 913e eb69 113e
000001d0: 7510 32bd 4778 963e 835b 7b3e 5326 4ebd
000001e0: 80ca 58be cc17 b63d d8eb c6bd 745a 303e
000001f0: bb7b a7be 3559 10be da10 f43d b3ec 8bbe

net.0.bias f4 [64]
0.0066131046 0.015989644 0.030662185 0.016032232 0.01590257 0.00815512 0.0018788863 -0.00073685613
0.021761378 0.011429748 -0.004447735 0.020348944 -0.017365808 -0.0038628848 -0.0049759895 0.004448811
0.005885012 -0.009734552 -0.02639756 0.0055546016 0.0046813176 0.031298954 0.0011531236 -0.042471774
-0.027595859 -0.0125824 -0.060116213 0.00257391 -0.01806364 0.0076455045 0.0052367533 0.0015340861
0.04258596 -0.00080791215 -0.0010968371 -0.008304748 -0.0071324324 -0.007013128 -0.049563624 -0.031514917
-0.011598375 0.02844524 0.0050947564 0.0042062392 0.013121434 0.004529154 0.013824554 7.774466e-05
0.01352573 0.0225351 -0.019349957 0.00025443538 0.0066785477 -0.0109549835 0.010393382 -0.015401011
-0.0016768561 0.020863242 0.0018668226 0.020985369 -0.020380847 0.045812033 -0.022935405 -0.014382406
00000000: beb2 d83b b7fc 823c 432f fb3c 0756 833c
00000010: 1b46 823c 0d9d 053c f644 f63a 9429 41ba
00000020: eb44 b23c d643 3b3c 4ebe 91bb d4b2 a63c
00000030: bd42 8ebc 7428 7dbb a00d a3bb 55c7 913b
00000040: 0fd7 c03b ac7d 1fbc b23f d8bc 6003 b63b
00000050: bd65 993b 5533 003d 6824 973a e2f6 2dbd
00000060: b610 e2bc 6926 4ebc 6b3c 76bd 0baf 283b
00000070: 33fa 93bc 2487 fa3b 1299 ab3b 6313 c93a
00000080: 9e6e 2e3d 11ca 53ba bfc3 8fba a310 08bc
00000090: 2eb7 e9bb 62ce e5bb 3a03 4bbd c915 01bd
000000a0: 1c07 3ebc fe05 e93c eaf1 a63b 7ed4 893b
000000b0: 48fb 563c 4c69 943b 6280 623c d90a a338
000000c0: 069b 5d3c 889b b83c cd83 9ebc bd65 8539
000000d0: b8d7 da3b 887c 33bc 0149 2a3c 8654 7cbc
000000e0: f4c9 dbba 64e9 aa3c 2cb0 f43a 82e9 ab3c
000000f0: bcf5 a6bc 66a5 3b3d 08e3 bbbc 2fa4 6bbc

net.2.weight f4 [64, 64]
-0.08202777 -0.094937935 0.13795385 -0.008948004 -0.14156453 0.18432817 -0.11658803 -0.0395099
0.05574835 -0.1639149 -0.023790233 -0.09021003 -0.059905898 -0.05916786 0.1582503 -0.08636995
-0.15826935 0.11327537 0.08965704 0.022528227 0.006546775 0.19254649 -0.09104615 -0.21356492
-0.19375971 0.05079988 0.10106857 -0.015827155 -0.16018507 -0.18837525 -0.12769608 0.12564282
0.034076303 -0.1008933 -0.18639937 0.14224918 0.017640468 0.20093828 -0.20769936 -0.15622169
0.032209247 0.12909798 0.12467064 0.20715535 0.11854316 0.090129256 -0.1529934 0.2343231
-0.07570336 0.15943283 0.108969234 -0.11103929 -0.006574179 0.0020946423 0.16422635 0.15718098
0.06285294 -0.13984583 0.041754633 0.19002132 -0.13631108 0.153886 0.0647159 0.13914795
0.07381347 0.13491786 -0.1861788 0.09172917 -0.18618889 -0.010875472 0.17197123 -0.17452839
-0.16234131 -0.092786804 -0.0072510545 -0.028683515 -0.17614564 0.026052611 -0.056798637 -0.103558056
0.0019999389 0.07081199 0.032525316 -0.1456477 0.1458042 0.043151654 -0.086348824 0.18950011
0.041057702 0.117346555 0.14989997 -0.0014912261 0.17639874 0.0010837079 0.17121844 0.027663471
0.1038014 0.10629969 -0.12257381 0.18681346 0.0036186117 0.08077689 -0.15843448 -0.0836351
0.13103685 -0.13458675 0.032721728 0.1940562 -0.20324123 -0.008383599 0.037243217 0.13914166
-0.075056806 -0.21394835 -0.13561855 0.06291821 -0.16036683 -0.1877052 0.0023048166 0.04952099
-0.13676973 -0.08165055 0.12090758 -0.14495443 -0.17612416 -0.063110396 0.17119214 -0.06630435
-0.15802917 -0.14983287 -0.046411444 0.15223978 0.09290365 -0.053955365 -0.19173007 -0.13050863
0.045782804 0.1806791 0.05818199 -0.03187315 0.08444457 0.019209648 0.031135153 0.10369086
-0.059985157 0.065620326 0.021456314 0.068351835 -0.056704443 0.13813956 -0.1955669 0.14181228
-0.1759754 -0.13975614 -0.13384521 -0.021618186 -0.019591486 -0.21410461 0.11631512 0.04804259
0.21674745 -0.15176243 -0.17360932 0.052438077 0.1657815 0.13891743 0.07603972 0.038973656
0.069941476 -0.09067139 -0.21955898 -0.17553543 -0.1414092 0.023527214 0.19247398 0.142796
-0.13898914 0.062881276 0.19404224 0.009882291 -0.033567745 -0.11535307 0.0026507615 0.12968168
-0.05582243 -0.032480415 0.1026063 -0.07083707 -0.10383156 0.033888817 0.1558894 0.025683545
-0.010688709 -0.17328808 0.12793481 0.012285105 -0.09234744 -0.18411809 -0.10118865 -0.14863814
0.04723557 0.16095659 -0.06624228 0.13271235 -0.056306656 -0.10468836 -0.20062253 -0.14699568
0.16144422 0.1436975 0.2067938 -0.023824966 0.07094335 -0.024295047 0.21709009 -0.17052375
-0.060754854 -0.20148525 0.017961377 -0.16581878 -0.15388973 0.051547114 0.21315005 0.1812204
0.1537813 -0.055642243 -0.009411906 -0.19736065 0.1421088 0.059590045 0.18355826 -0.21262133
-0.06846693 -0.13831244 -0.16393098 -0.1238249 0.07024053 0.13499767 0.100152284 -0.07662103
0.09347532 0.2112319 0.008935654 -0.07917714 -0.1710713 0.15079015 -0.03929104 -0.18139902
0.12477424 0.04613514 -0.085356295 -0.21016285 0.02880757 -0.062138107 -0.040905416 -0.0743445
00000000: 2dfe a7bd d26e c2bd c643 0d3e a69a 12bc
00000010: 4bf6 10be 86c0 3c3e b4c5 eebd 22d5 21bd
00000020: 6258 643d 4fd9 27be bce3 c2bc 09c0 b8bd
00000030: e35f 75bd ff59 72bd 5e0c 223e bae2 b0bd
00000040: 5c11 22be ebfc e73d 1c9e b73d 1e8d b83c
00000050: 5486 d63b e82a 453e 6776 babd c3b0 5abe
00000060: f268 46be 8913 503d 0afd ce3d f3a7 81bc
00000070: 8e07 24be 71e5 40be c3c2 02be 83a8 003e
00000080: 9893 0b3d 25a1 cebd 7adf 3ebe c5a9 113e
00000090: be82 903c c4c2 4d3e 24af 54be 94f8 1fbe
000000a0: d8ed 033d 4332 043e 5253 ff3d 8820 543e
000000b0: c2c6 f23d b095 b83d 4daa 1cbe 65f2 6f3e
000000c0: 5d0a 9bbd 5c42 233e 432b df3d 9168 e3bd
000000d0: 366c d7bb 4446 093b f42a 283e 0df4 203e
000000e0: 0bb9 803d bf33 0fbe e806 2b3d f394 423e
000000f0: 2295 0bbe 4b94 1d3e c589 843d cd7c 0e3e
00000100: 842b 973d e827 0a3e a8a5 3ebe 81dc bb3d
00000110: 4da8 3ebe 092f 32bc 3a19 303e 92b7 32be
00000120: cd3c 26be 0207 bebd 419a edbb b1f9 eabc
00000130: 865f 34be 496c d53c b0a5 68bd 3f16 d4bd
00000140: 6811 033b e005 913d 4439 053d ac24 15be
00000150: b24d 153e cabf 303d a7d7 b0bd 510c 423e
00000160: 1f2c 283d 6453 f03d 617f 193e 3f75 c3ba
00000170: dfa1 343e 340b 8e3a e353 2f3e 819e e23c
00000180: d495 d43d a7b3 d93d fa07 fbbd 074c 3f3e
00000190: 3b26 6d3b 5b6e a53d a63c 22be e148 abbd
000001a0: 862e 063e 1cd1 09be 3807 063d abb6 463e
000001b0: 781e 50be 5d5b 09bc 588c 183d 277b 0e3e
000001c0: 62b7 99bd 4715 5bbe 97df 0abe 43db 803d
000001d0: 3437 24be cb35 40be 680c 173b 86d6 4a3d
000001e0: 5d0d 0cbe 6738 a7bd 659e f73d ef6e 14be
000001f0: e459 34be 0640 81bd fe4c 2f3e 93ca 87bd
00000200: 66d2 21be ca6d 19be ed19 3ebd bfe4 1b3e
00000210: 4544 be3d 4d00 5dbd e354 44be 0ea4 05be
00000220: c086 3b3d f103 393e 3d50 6e3d 6c8d 02bd
00000230: 46f1 ac3d 8d5d 9d3c 260f ff3c e05b d43d
00000240: ffb2 75bd f363 863d 27c5 af3c 0cfc 8b3d
00000250: eb42 68bd 7574 0d3e b042 48be 3d37 113e
00000260: e532 34be 3c1c 0fbe b80e 09be 9f18 b1bc
00000270: 537e a0bc 3d3e 5bbe 9f36 ee3d 4fc8 443d
00000280: 0bf3 5d3e 9c67 1bbe a4c6 31be 4fc9 563d
00000290: a0c2 293e 5f40 0e3e b6ba 9b3d d7a2 1f3d
000002a0: 7a3d 8f3d ecb1 b9bd 12d4 60be 8fbf 33be
000002b0: 93cd 10be 25bc c03c e617 453e 1d39 123e
000002c0: 2b53 0ebe e6c7 803d 02b3 463e 55e9 213c
000002d0: 557e 09bd 3b3e ecbd 66b8 2d3b 46cb 043e
000002e0: 0fa6 64bd 2f0a 05bd 4023 d23d 0713 91bd
000002f0: a4a5 d4bd 00cf 0a3d 79a1 1f3e 4c66 d23c
00000300: b21f 2fbc 6e72 31be 5801 033e 7747 493c
00000310: a820 bdbd 7489 3cbe ff3b cfbd 9934 18be
00000320: 167a 413d ced1 243e 08aa 87bd bfe5 073e
00000330: cfa1 66bd da66 d6bd fe6f 4dbe 0986 16be
00000340: a251 253e 7025 133e c1c1 533e 932c c3bc
00000350: bf4a 913d 6806 c7bc dd4c 5e3e c79d 2ebe
00000360: 15da 78bd 2652 4ebe bd23 933c 66cc 29be
00000370: 4595 1dbe 1123 533d 0244 5a3e d791 393e
00000380: d878 1d3e 1fe9 63bd 6534 1abc e918 4abe
00000390: f884 113e b114 743d b2f6 3b3e 68b9 59be
000003a0: 6438 8cbd c7a1 0dbe 86dd 27be e997 fdbd
000003b0: 44da 8f3d d43c 0a3e a41c cd3d 7deb 9cbd
000003c0: fd6f bf3d 2d4d 583e d966 123c a027 a2bd
000003d0: 512d 2fbe bc68 1a3e a4ef 20bd aac0 39be
000003e0: a389 ff3d 33f8 3c3d 48cf aebd ee34 57be
000003f0: dafd eb3c 8784 7ebd 708c 27bd ee41 98bd

net.2.bias f4 [64]
-0.0018147359 -0.022654874 0.15704244 0.044024132 0.012609439 -0.008100874 -0.020622974 -0.007804494
-0.023766678 -0.016205845 0.016025731 -0.01788123 -0.03651686 0.011330231 0.008146022 0.020132406
-0.09293099 -0.014527415 0.030565238 0.028532585 0.023017498 -0.0067868168 -0.020019177 -0.026446838
-0.053884443 -0.0010203153 0.0145289255 -0.0022165123 0.0042700525 -0.0057897936 -0.0055665467 0.0014513269
-0.0032639203 -0.012779639 -0.008226494 -0.023372747 0.031627588 0.031731352 0.007506847 0.00046068683
-0.005005268 -0.031754397 0.05290538 -0.008943266 -0.028307134 0.0020073734 -0.0046495837 -0.0018984787
-0.020917969 0.009955016 -0.0076198885 -0.016236877 -0.008802479 -0.10664849 0.04317901 0.018172475
-0.029078474 -0.009800172 0.010340238 -0.04379809 -0.0030103421 0.016344493 -0.05297236 -0.0021428738
00000000: 6fdc edba b796 b9bc bccf 203e a652 343d
00000010: d297 4e3c 87b9 04bc 83f1 a8bc d7bc ffbb
00000020: 56b2 c2bc 1fc2 84bc 6548 833c a87b 92bc
00000030: b492 15bd 6fa2 393c e576 053c b7ec a43c
00000040: 9a52 bebd 6504 6ebc f363 fa3c 2bbd e93c
00000050: 318f bc3c f263 debb 42ff a3bc 0aa7 d8bc
00000060: efb5 5cbd 1abc 85ba bb0a 6e3c e842 11bb
00000070: cceb 8b3b 4fb8 bdbb 9467 b6bb 733a be3a
00000080: 7fe7 55bb b161 51bc 6bc8 06bc 3478 bfbc
00000090: ee8b 013d bcf8 013d fffb f53b 5788 f139
000000a0: 3b03 a4bb e610 02bd 50b3 583d c786 12bc
000000b0: 5de4 e7bc 238e 033b 895b 98bb 60d6 f8ba
000000c0: 295c abbc 5d1a 233c 42b0 f9bb 3303 85bc
000000d0: 4638 10bc 866a dabd 79dc 303d 71de 943c
000000e0: fb35 eebc e790 20bc 1a6a 293c a065 33bd
000000f0: 2949 45bb e3e4 853c 8cf9 58bd 756f 0cbb

net.4.weight f4 [64, 64]
-0.0024552324 0.17362224 0.1486988 -0.18791397 -0.09683615 0.04135438 0.13572448 -0.08173152
-0.1886603 -0.011504851 0.14405298 -0.11678424 -0.19551699 0.018714199 0.18510953 -0.1808625
0.051073357 0.1394369 0.0048067058 -0.116297595 -0.074779265 -0.13814875 0.018896777 -0.09406402
0.008740763 -0.051714644 -0.15076576 0.2053971 0.04494405 0.108463325 0.12634723 0.08213047
-0.05326069 -0.06836088 -0.1241383 -0.18973576 -0.18063256 -0.081531174 0.19150352 -0.20833845
-0.14040707 -0.17080402 -0.1471989 0.17895766 -0.16796903 -0.16027959 -0.12894388 0.06329518
-0.06385385 -0.13915639 0.18128923 0.019448774 -0.15424171 -0.079681106 0.12778626 0.08265958
-0.14118402 -0.105571024 -0.096363425 0.07301796 -0.18489857 0.20446157 0.020710934 0.08457892
0.06071471 0.17009348 -0.068896785 -0.063807234 -0.14657624 0.17020166 -0.016013274 -0.009058941
0.18245502 -0.050600808 -0.081337 -0.0843342 0.120621346 0.021786893 -0.12138027 0.14615889
0.07939559 -0.052636046 0.050254516 -0.19660619 -0.15789534 -0.08433292 0.10089793 -0.045876652
0.15714757 -0.19693148 0.15889359 -0.20433266 -0.06854261 0.1986284 -0.07075723 -0.08862473
0.119729824 -0.11341537 0.04967976 -0.079902664 0.10328831 -0.13428207 -0.100599915 -0.14127055
-0.033690494 0.21822977 0.1193517 -0.17317931 0.10784704 0.20400256 0.21748035 0.015765598
0.053527907 0.15155208 0.20605107 0.02131249 -0.04233323 0.17558363 -0.052075725 0.16802058
0.18752933 0.05558179 -0.16332139 0.1778291 0.11515232 0.049255997 0.04790725 0.103872314
0.124634326 -0.14064321 -0.1696108 0.12999968 -0.09551542 -0.19703643 0.18245803 -0.17354956
-0.08225195 -0.13196163 0.17914742 -0.022233557 -0.11722548 0.17634642 0.19578214 0.119050086
0.16450849 -0.19807217 -0.19514105 0.11790757 -0.05273054 0.08745448 0.19764782 -0.048225623
-0.11599273 0.2076747 -0.102357216 -0.1190377 0.17976354 -0.009455784 -0.10406176 0.08302065
-0.10658835 0.010544925 -0.16600052 -0.054866843 0.18626085 0.029585756 -0.016791541 0.16680948
0.12202992 0.124746725 0.09757309 -0.07583097 -0.19588263 -0.12249542 -0.12546302 0.054459773
0.1692474 0.1945073 0.17081408 0.04431529 0.14490698 0.010712078 0.106683135 -0.14794369
0.21275881 0.095560774 0.011345077 -0.07700688 0.049430203 -0.027702425 -0.13909785 -0.13207215
-0.08900557 0.051733278 -0.13709734 0.137659 -0.12420346 0.12365577 0.008427494 -0.004953925
0.0211157 0.0018882575 0.09841607 -0.011690934 -0.079778545 0.01866012 -0.13210295 0.09084342
0.017204506 0.10667344 -0.03689419 -0.0011192978 -0.106694765 -0.10258875 0.002372488 0.11149505
-0.083242655 0.17452517 -0.07106316 -0.03999278 0.1791816 -0.038952433 0.119937606 -0.01595728
0.13095468 0.030216929 -0.096744984 -0.14451385 0.1469772 0.052200545 -0.020895628 -0.03931111
-0.08558762 -0.14729106 0.043313503 -0.18513438 -0.0052925865 0.16001333 0.10140968 0.1115522
0.036159966 -0.12631574 0.108475626 0.18312354 0.08494586 0.15012252 -0.16910881 -0.19252573
-0.046403635 0.05178584 0.15042353 -0.054437485 -0.08433888 0.13748115 -0.0060480707 0.016138185
00000000: f7e7 20bb 07ca 313e 8044 183e 856c 40be
00000010: 0852 c6bd 3663 293d 5cfb 0a3e db62 a7bd
00000020: 2a30 41be d87e 3cbc a082 133e 932c efbd
00000030: 9b35 48be 854e 993c 5a8d 3d3e 0534 39be
00000040: 4c32 513d 8cc8 0e3e 9281 9d3b 6f2d eebd
00000050: df25 99bd de76 0dbe 6acd 9a3c a3a4 c0bd
00000060: 6b35 0f3c bcd2 53bd 5762 1abe 9e53 523e
00000070: 4117 383d 0522 de3d 2b61 013e 0534 a83d
00000080: e227 5abd ca00 8cbd 393c febd 174a 42be
00000090: bef7 38be d1f9 a6bd 8019 443e ad56 55be
000000a0: dfc6 0fbe 40e7 2ebe 4fbb 16be ad40 373e
000000b0: 1300 2cbe 5520 24be dd09 04be e7a0 813d
000000c0: cfc5 82bd 037f 0ebe e2a3 393e 0953 9f3c
000000d0: 8af1 1dbe d92f a3bd 67da 023e 6d49 a93d
000000e0: 8b92 10be 9f35 d8bd 305a c5bd 718a 953d
000000f0: 0d56 3dbe 605e 513e faa9 a93c b637 ad3d
00000100: fdaf 783d fc2c 2e3e c219 8dbd 5ead 82bd
00000110: 1518 16be 5849 2e3e 452e 83bc f46b 14bc
00000120: 7dd5 3a3e cb42 4fbd 0394 a6bd 69b7 acbd
00000130: 5308 f73d 6d7a b23c 3896 f8bd adaa 153e
00000140: 289a a23d e598 57bd aed7 4d3d 2253 49be
00000150: 51af 21be bdb6 acbd 93a3 ce3d 28e9 3bbd
00000160: 4beb 203e 68a8 49be 00b5 223e 953c 51be
00000170: 1160 8cbd 3e65 4b3e 2be9 90bd e280 b5bd
00000180: e934 f53d 5146 e8bd 017d 4b3d 02a4 a3bd
00000190: d288 d33d 3d81 09be 5407 cebd 3aa9 10be
000001a0: 0bff 09bd a077 5f3e aa6e f43d eb55 31be
000001b0: e9de dc3d 0ce6 503e 2bb3 5e3e db26 813c
000001c0: 1440 5b3d 7830 1b3e 0dff 523e 8897 ae3c
000001d0: 9c65 2dbd 32cc 333e 5b4d 55bd 960d 2c3e
000001e0: b007 403e bba9 633d b93d 27be d518 363e
000001f0: fbd4 eb3d a8c0 493d 643a 443d 02bb d43d
00000200: 4840 ff3d c604 10be 74ae 2dbe a31e 053e
00000210: 979d c3bd ebc3 49be 47d6 3a3e fab6 31be
00000220: b673 a8bd f320 07be 6c72 373e 2623 b6bc
00000230: ea13 f0bd 2894 343e 1d7b 483e 88d0 f33d
00000240: ea74 283e 6ed3 4abe 0ed3 47be 8679 f13d
00000250: fbfb 57bd 561b b33d 3164 4a3e 3b88 45bd
00000260: 998d edbd ada8 543e a9a0 d1bd 0aca f3bd
00000270: ef13 383e 6fec 1abc 551e d5bd bb06 aa3d
00000280: fe4a dabd 9fc4 2c3c 0afc 29be 0ebc 60bd
00000290: 2abb 3e3e d45d f23c 6a8e 89bc 1bd0 2a3e
000002a0: d3ea f93d 367b ff3d 66d4 c73d 454d 9bbd
000002b0: 7595 48be e1de fabd 6179 00be 3611 5f3d
000002c0: 314f 2d3e ec2c 473e e3e9 2e3e f383 353d
000002d0: 7f62 143e b681 2f3c b07c da3d 8d7e 17be
000002e0: 72dd 593e 5eb5 c33d b4e0 393c c8b5 9dbd
000002f0: 5377 4a3d 32f0 e2bc ab6f 0ebe ec3d 07be
00000300: 8d48 b6bd 46e6 533d 3f63 0cbe 7bf6 0c3e
00000310: 625e febd 3d3f fd3d 7913 0a3c 8954 a2bb
00000320: d5fa ac3c 687f f73a 5d8e c93d 558b 3fbc
00000330: ef62 a3bd 1cdd 983c ff45 07be 1d0c ba3d
00000340: 77f0 8c3c 9b77 da3d 5d1e 17bd 67b5 92ba
00000350: c982 dabd 0d1a d2bd be7b 1b3b 8457 e43d
00000360: 207b aabd bab6 323e 9089 91bd 78cf 23bd
00000370: 627b 373e 968c 1fbd d9a1 f53d d7b8 82bc
00000380: fc18 063e 7e89 f73c 3c22 c6bd 70fb 13be
00000390: 3181 163e 3dd0 553d 4f2d abbc b004 21bd
000003a0: 9048 afbd 78d3 16be 8069 313d de93 3dbe
000003b0: 6f6d adbb 89da 233e e1af cf3d 7b75 e43d
000003c0: 791c 143d ea58 01be 7828 de3d bd84 3b3e
000003d0: 18f8 ad3d b8b9 193e dc2a 2dbe 7725 45be
000003e0: bd11 3ebd 641d 543d a008 1a3e d7f9 5ebd
000003f0: ddb9 acbd dcc7 0c3e e52e c6bb 3a34 843c

net.4.bias f4 [64]
0.08064048 -0.028318413 -0.025726343 -0.023833578 0.0010078783 -0.0125184255 0.024287943 0.028334145
-0.11437563 -0.026618738 -0.016849916 0.03179061 -0.022246338 -0.024440816 -0.026253218 0.02672562
0.027346706 0.024660625 0.021174595 0.024382398 -0.07859396 0.00043943967 -0.03623594 -0.0152943665
0.011682072 -0.0012884116 -0.026190478 -0.04905607 -0.045240883 0.013915603 0.018892927 0.06911975
0.084994145 0.023554215 0.0425631 0.026980853 -0.007658917 -0.01666369 0.0008734955 0.0155643895
0.029411918 0.020179192 -0.02564801 -0.0062349425 0.028489085 -0.025306871 -0.022901628 0.023196643
-0.023914186 0.016560316 -0.02084552 0.025536943 0.027106492 -0.011892606 -0.021021182 0.033268064
0.022311172 -0.069745764 -0.025561135 -0.00414884 0.056863755 0.036713384 -0.0041779377 0.02279766
00000000: d626 a53d 04fc e7bc 0dc0 d2bc a33e c3bc
00000010: c91a 843a 151a 4dbc 82f7 c63c 021d e83c
00000020: c53d eabd 8a0f dabc d608 8abc df36 023d
00000030: f43d b6bc 1b38 c8bc fd10 d7bc b0ef da3c
00000040: 3306 e03c 1405 ca3c 5876 ad3c 98bd c73c
00000050: dff5 a0bd 9864 e639 236c 14bd 3995 7abc
00000060: 2966 3f3c ebdf a8ba 6a8d d6bc 05ef 48bd
00000070: 814e 39bd 45fe 633c 57c5 9a3c a88e 8d3d
00000080: 6911 ae3d c5f4 c03c a556 2e3d f306 dd3c
00000090: a7f7 fabb 4a82 88bc 4afb 643a c801 7f3c
000000a0: 43f1 f03c d54e a53c c71b d2bc 7d4e ccbb
000000b0: f161 e93c 5b50 cfbc 329c bbbc e306 be3c
000000c0: afe7 c3bc 80a9 873c 39c4 aabc da32 d13c
000000d0: 6f0e de3c 34d9 42bc 9d34 acbc 1844 083d
000000e0: ebc5 b63c ded6 8ebd 9665 d1bc fef2 87bb
000000f0: f8e9 683d c660 163d 15e7 88bb 29c2 ba3c

net.6.weight f4 [1, 64]
0.26899806 -0.21109164 -0.112422176 -0.048831075 -0.0033106443 -0.030737557 0.21738681 0.22548887
-0.26322594 -0.27510017 -0.2996928 0.2501816 -0.038951386 -0.14056523 -0.18683584 0.0409017
0.085691765 0.15853354 0.24623682 0.25810808 -0.19463192 -0.01720284 -0.19387712 -0.11177304
0.0027857036 0.16409615 -0.121447794 -0.16624318 -0.07620066 0.11968541 0.00256788 0.22918135
-0.26835355 0.110133156 0.2301749 0.17677936 -0.25571024 -0.18118905 0.00016465303 -0.00018311954
0.17520729 0.24382865 -0.018453673 -0.090594076 0.15723754 -0.18659422 -0.10282052 0.033893
-0.043335184 0.17707254 -0.05484941 0.023562878 0.09383307 -0.018679786 -0.09398179 0.19032724
0.16057292 -0.048080523 -0.17508404 -0.09452827 0.21113656 0.17466463 -0.09606614 0.15610754
00000000: 1dba 893e 6828 58be 993d e6bd 1803 48bd
00000010: 65f7 58bb 54cd fbbc a69a 5e3e 8ee6 663e
00000020: 8dc5 86be eed9 8cbe 5671 99be cd17 803e
00000030: 7d8b 1fbd 55f0 0fbe e551 3fbe 8a88 273d
00000040: 2a7f af3d 9e56 223e 8125 7c3e be26 843e
00000050: 974d 47be f8ec 8cbc b987 46be 43e9 e4bd
00000060: 5a90 363b d208 283e 9fb9 f8bd a73b 2abe
00000070: 170f 9cbd a01d f53d e149 283b 84ae 6a3e
00000080: a365 89be 7e8d e13d f8b2 6b3e a605 353e
00000090: 74ec 82be 9f89 39be b6a6 2c39 c703 40b9
000000a0: 8a69 333e 38ae 793e 282c 97bc 6389 b9bd
000000b0: e102 213e 8e12 3fbe 9193 d2bd 63d3 0a3d
000000c0: 3c80 31bd 8152 353e c6a9 60bd f006 c13c
000000d0: 8d2b c03d 5a06 99bc 8679 c0bd 25e5 423e
000000e0: 3a6d 243e 15f0 44bd 3b49 33be 0a98 c1bd
000000f0: 2f34 583e 49db 323e 53be c4bd a8da 1f3e
